…
2020-08-09 19:31:53.061634: I tensorflow/core/platform/cpu_feature_guard.cc:143] Your CPU supports instructions that this TensorFlow binary was not compiled to use: AVX2 FMA
2020-08-09 19:31:53.077039: I tensorflow/compiler/xla/service/service.cc:168] XLA service 0x7fa688617ec0 initialized for platform Host (this does not guarantee that XLA will be used). Devices:
2020-08-09 19:31:53.077065: I tensorflow/compiler/xla/service/service.cc:176]   StreamExecutor device (0): Host, Default Version
Model: "sequential"
_________________________________________________________________
Layer (type)                 Output Shape              Param #
=================================================================
conv2d (Conv2D)              (None, 64, 64, 32)        320
_________________________________________________________________
batch_normalization (BatchNo (None, 64, 64, 32)        128
_________________________________________________________________
max_pooling2d (MaxPooling2D) (None, 32, 32, 32)        0
_________________________________________________________________
dropout (Dropout)            (None, 32, 32, 32)        0
_________________________________________________________________
conv2d_1 (Conv2D)            (None, 32, 32, 64)        18496
_________________________________________________________________
batch_normalization_1 (Batch (None, 32, 32, 64)        256
_________________________________________________________________
conv2d_2 (Conv2D)            (None, 32, 32, 64)        102464
_________________________________________________________________
batch_normalization_2 (Batch (None, 32, 32, 64)        256
_________________________________________________________________
max_pooling2d_1 (MaxPooling2 (None, 16, 16, 64)        0
_________________________________________________________________
dropout_1 (Dropout)          (None, 16, 16, 64)        0
_________________________________________________________________
conv2d_3 (Conv2D)            (None, 16, 16, 128)       73856
_________________________________________________________________
batch_normalization_3 (Batch (None, 16, 16, 128)       512
_________________________________________________________________
conv2d_4 (Conv2D)            (None, 16, 16, 128)       409728
_________________________________________________________________
batch_normalization_4 (Batch (None, 16, 16, 128)       512
_________________________________________________________________
max_pooling2d_2 (MaxPooling2 (None, 8, 8, 128)         0
_________________________________________________________________
dropout_2 (Dropout)          (None, 8, 8, 128)         0
_________________________________________________________________
flatten (Flatten)            (None, 8192)              0
_________________________________________________________________
dense (Dense)                (None, 1024)              8389632
_________________________________________________________________
activation (Activation)      (None, 1024)              0
_________________________________________________________________
batch_normalization_5 (Batch (None, 1024)              4096
_________________________________________________________________
dropout_3 (Dropout)          (None, 1024)              0
_________________________________________________________________
dense_1 (Dense)              (None, 210)               215250
=================================================================
Total params: 9,215,506
Trainable params: 9,212,626
Non-trainable params: 2,880
_________________________________________________________________
[INFO]Found 210 categories.
[INFO]Processing category 1 ...
[INFO]Processing category 20 ...
[INFO]Processing category 40 ...
[INFO]Processing category 60 ...
[INFO]Processing category 80 ...
…
